tutorials/networks/network_mnist_1.pth (torch, 37611 bytes, 6 tensors)

weight f4 [10, 1, 5, 5]
-0.1386291 -0.28171533 -0.09525557 0.13768023 0.042595543 -0.14810812 -0.2929745 -0.2871203
-0.19845012 0.0103728445 0.2127931 -0.084665954 -0.17413785 -0.14953679 -0.22825682 0.34848785
-0.01849289 0.090675615 -0.019397682 -0.03635003 0.20542045 0.27382165 0.20136072 0.22524346
0.02647075 0.028785624 0.3801137 0.5263046 0.29697758 0.068734035 -0.28700027 -0.4932065
-0.46128902 -0.3756363 -0.42611617 -0.18556592 -0.361543 -0.4214737 -0.30313435 -0.16809678
0.23301135 0.15998876 0.22777623 0.2579191 0.22195415 0.12716028 0.24264832 0.07079001
0.10818024 0.15183531 -0.025415959 -0.05742845 -0.21436481 0.084709115 0.07039792 -0.1593945
-0.22705898 -0.31860676 0.10327431 0.26699114 -0.30615398 -0.26176438 -0.12574622 0.10205449
0.4142297 -0.28599146 -0.26929528 0.06751114 0.28802714 0.1623713 -0.28807783 -0.1376096
0.04189253 0.25366342 0.13069259 0.023972437 0.008877088 0.1995746 -0.24523577 -0.06579112
-0.030459413 0.29075518 0.13924253 -0.46153992 -0.068878256 0.1803309 0.5035063 -0.17262873
-0.2987585 -0.17755386 0.006037692 0.20840448 -0.14473341 -0.020985287 -0.09251396 -0.19761345
0.031256948 0.07832196 0.14904808 -0.03244714 -0.0077670356 -0.002305643 -0.035730224 0.03856296
0.1315215 0.15796767 -0.024178091 -0.04817766 -0.18088038 0.11964441 0.17084105 -0.23371789
-0.2442554 -0.16525203 0.33991703 0.28438997 0.2300509 0.035360266 0.15303141 -0.012169278
-0.113715984 0.17151348 -0.030053245 0.04776414 -0.29459548 0.056757636 -0.25515464 -0.18806283
0.017146923 0.25873673 -0.23445138 0.012169761 -0.22020747 -0.09327145 0.117405824 -0.08823495
-0.20917283 -0.28494802 -0.066026516 0.122368835 0.29701206 0.027667405 -0.3138171 -0.14090681
-0.21626304 0.08292017 0.24205475 -0.045730554 -0.22252403 -0.086523436 -0.046671905 0.12263318
0.0805609 -0.39919755 -0.36203563 0.004882939 -0.096852064 -0.47182712 -0.20849897 0.13706914
-0.07290656 -0.20191488 -0.077456154 0.35195768 0.37621897 0.09005986 -0.1925377 0.066733904
0.3933396 0.08493039 0.19880266 0.17370297 0.33340284 -0.08239419 -0.22031298 0.05371826
-0.021778854 -0.12890877 -0.27330124 -0.17641614 0.030962808 -0.03223163 0.06546319 0.05389005
-0.16450757 0.16417162 0.3403585 0.30103362 0.28666034 0.19865298 -0.17749047 0.031746786
0.01380127 0.31934923 0.25008997 -0.33862802 -0.028358595 -0.2447314 -0.26835525 0.0517403
0.15130723 -0.103012316 -0.16599807 -0.12435203 -0.1626228 0.02357754 -0.15772745 -0.027307652
-0.08315343 -0.11137526 0.022641273 -0.17691867 -0.13141273 -0.18694545 0.026871331 -0.10350352
-0.17855954 -0.14658183 0.10018963 0.12015164 -0.24963361 -0.21489173 -0.026312439 0.2298162
0.012352628 0.18076003 0.14565708 0.39501688 0.32036805 0.348257 -0.15491737 -0.070473336
0.19321647 0.035428032 0.18153787 -0.100031726 -0.14714284 -0.20390368 -0.16123341 -0.38755572
0.038571533 0.043407325 -0.21437682 -0.16441606 -0.289779 -0.0053084968 -0.005631852 -0.32705227
-0.17834722 0.0771063
00000000: c9f4 0dbe fe3c 90be 5a15 c3bd 0cfc 0c3e
00000010: aa78 2e3d a8a9 17be c100 96be 6f01 93be
00000020: 8236 4bbe ddf2 293c 6fe6 593e 5865 adbd
00000030: 3151 32be 2c20 19be 28bc 69be 006d b23e
00000040: 677e 97bc 23b4 b93d e3e7 9ebc c5e3 14bd
00000050: bd59 523e 5a32 8c3e 8131 4e3e 39a6 663e
00000060: 30d9 d83c d4cf eb3c 439e c23e e6bb 063f
00000070: 720d 983e 6ec4 8c3d b3f1 92be 9085 fcbe
00000080: 132e ecbe 6753 c0be e62b dabe fe04 3ebe
00000090: 2a1c b9be 67cb d7be 6d34 9bbe 9021 2cbe
000000a0: 879a 6e3e 18d4 233e 2c3e 693e f90d 843e
000000b0: f347 633e 4e36 023e cd78 783e 5afa 903d
000000c0: 9a8d dd3d b77a 1b3e 2135 d0bc 183a 6bbd
000000d0: 7382 5bbe f97b ad3d c92c 903d 5038 23be
000000e0: 2682 68be 6d20 a3be 7b81 d33d 10b3 883e
000000f0: 37c0 9cbe fb05 86be 9ec3 00be f201 d13d
00000100: ea15 d43e 796d 92be 12e1 89be 4843 8a3d
00000110: 4b78 933e a944 263e f07e 93be 88e9 0cbe
00000120: 8097 2b3d 2ce0 813e 47d4 053e d861 c43c
00000130: 3571 113c 495d 4c3e 161f 7bbe 7fbd 86bd
00000140: 0586 f9bc dddd 943e 9895 0e3e f64e ecbe
00000150: 0b10 8dbd aaa8 383e cae5 003f 96c5 30be
00000160: e0f6 98be aed0 35be d5d7 c53b fc67 553e
00000170: ff34 14be 56e9 abbc f677 bdbd 2e5b 4abe
00000180: 4907 003d 4467 a03d 0fa0 183e 4be7 04bd
00000190: 9e82 febb 451a 17bb db59 12bd 32f4 1d3d
000001a0: 92ad 063e 47c2 213e 2211 c6bc f055 45bd
000001b0: b538 39be 2108 f53d f5f0 2e3e be53 6fbe
000001c0: 161e 7abe d437 29be 9b09 ae3e 909b 913e
000001d0: 7792 6b3e edd5 103d 44b4 1c3e a761 47bc
000001e0: ede3 e8bd 3ba1 2f3e 3932 f6bc 55a4 433d
000001f0: 38d5 96be b27a 683d a1a3 82be 8b93 40be
00000200: b477 8c3c 2479 843e 0614 70be ad63 473c
00000210: 117e 61be 1a05 bfbd 7772 f03d 87b4 b4bd
00000220: 6731 56be b5e4 91be e938 87bd 839c fa3d
00000230: f711 983e c1a6 e23c a3ac a0be e049 10be
00000240: 0f74 5dbe 0dd2 a93d 33dd 773e f64f 3bbd
00000250: 57dd 63be 3333 b1bd 0a2b 3fbd 1b27 fb3d
00000260: 1dfd a43d 9f63 ccbe bc5c b9be 1001 a03b
00000270: 605a c6bd 5393 f1be c180 55be da5b 0c3e
00000280: 0950 95bd c6c2 4ebe 55a1 9ebd cc33 b43e
00000290: c69f c03e 4e71 b83d 9a28 45be c9ab 883d
000002a0: cf63 c93e fcef ad3d ed92 4b3e 31df 313e
000002b0: c7b3 aa3e 49be a8bd ba99 61be ae07 5c3d
000002c0: 9169 b2bc a900 04be 24ee 8bbe 6fa6 34be
000002d0: b7a5 fd3c 5005 04bd 9111 863d d0bb 5c3d
000002e0: ac74 28be 9b1c 283e 7843 ae3e 1421 9a3e
000002f0: 25c5 923e b06b 4b3e 10c0 35be eb08 023d
00000300: b91e 623c be81 a33e cb0b 803e a760 adbe
00000310: 4950 e8bc de9a 7abe dc65 89be a3ed 533d
00000320: 48f0 1a3e 1ff8 d2bd 66fb 29be 47ac febd
00000330: 9786 26be af25 c13c 4e83 21be 4cb4 dfbc
00000340: 584c aabd b618 e4bd 317a b93c 2b2a 35be
00000350: 0f91 06be a16e 3fbe 4421 dc3c a7f9 d3bd
00000360: 50d8 36be 8c19 16be 3930 cd3d 1012 f63d
00000370: f49f 7fbe 940c 5cbe 2f8d d7bc f054 6b3e
00000380: ad62 4a3c 2819 393e 2127 153e a73f ca3e
00000390: 4807 a43e be4e b23e a9a2 1ebe 5354 90bd
000003a0: 8ada 453e fc1c 113d 10e5 393e 6fdd ccbd
000003b0: 9dac 16be 20cc 50be 5f1a 25be b46d c6be
000003c0: 2ffd 1d3d e1cb 313d 9985 5bbe af5c 28be
000003d0: ea5d 94be e6f2 adbb 668b b8bb 6573 a7be
000003e0: a7a0 36be e8e9 9d3d

bias f4 [10]
-0.2289383 -0.13081114 -0.3515175 -0.14448975 -0.10702018 -0.014226222 -0.19610158 -0.19800028
0.06788913 -0.23837918
00000000: cd6e 6abe 5bf3 05be 1afa b3be 1ff5 13be
00000010: 652d dbbd 1a15 69bc dace 48be 96c0 4abe
00000020: 7509 8b3d ac19 74be

weight f4 [20, 10, 5, 5]
-0.021962095 -0.015567591 -0.11678735 -0.024309888 0.19044691 0.014160027 -0.0721705 -0.07100773
-0.046378765 0.17215835 0.0755203 0.115171544 0.013512096 -0.07166146 -0.06420425 0.05657392
0.06413062 -0.03653156 0.017896442 -0.021952262 -0.034882657 0.0010523718 0.001725951 0.00046219077
-0.12457873 -0.08373984 -0.17912239 -0.1445877 -0.0018663618 0.14274171 0.0030848326 -0.08648282
-0.119129844 -0.07050791 -0.002922248 0.04563421 0.13176516 0.04209377 -0.17256655 -0.09984573
0.047907013 0.09216625 0.027036646 -0.03816921 -0.03140068 -0.015984965 -0.0459835 -0.04989185
-0.059304647 -0.06173352 0.022140153 0.013056072 0.021359488 -0.051509123 -0.27242896 -0.1581441
-0.12894185 0.04289282 0.17164108 -0.17707121 -0.09971757 -0.06289895 -0.049932193 0.22522564
-0.12166148 -0.02031444 -0.10280917 -0.0045097372 0.16137215 -0.005093343 0.034255788 -0.06491674
0.029130783 0.105266154 -0.020001186 -0.1486035 -0.068103135 -0.033537004 0.04543712 0.14107597
-0.12536213 -0.004242885 -0.13064891 0.045238025 0.19474338 -0.12648809 -0.113962114 -0.13594788
-0.0787414 0.28241903 -0.057411782 -0.105394885 -0.046641756 0.0046086903 0.023339814 -0.055112835
-0.038970977 -0.06722595 -0.049183458 0.06289002 -0.018850006 -0.025142446 -0.028995674 0.07716287
0.09756014 -0.07378825 0.0071531106 -0.07849879 0.021551784 0.041448504 -0.108602144 -0.06004971
0.012084613 -0.062726386 0.053323638 0.033424437 -0.07241195 -0.036604956 0.057632517 -0.08945027
0.029106507 -0.0069815894 -0.010980952 0.023828942 0.0027634667 0.015003073 0.038349558 0.007329186
-0.044274483 0.03543957 0.041844543 -0.025196621 0.0025728813 -0.022160007 0.06979562 -0.092272185
0.04979664 0.0021160387 -0.08129452 -0.04245448 -0.0033565038 -0.03172547 0.0099974945 0.019861354
-0.012566091 0.0045145545 -0.08176974 -0.07931711 -0.0629662 -0.09256899 0.0115050385 -0.09126806
-0.09354652 -0.061064858 0.04449159 -0.056886055 -0.029814335 -0.12079032 0.0045269723 0.01365702
0.08136645 0.0202758 0.010201397 0.016776988 -0.10417317 0.045886006 0.117860734 0.028892241
-0.061108615 -0.027081143 0.05806875 0.037508935 -0.04859653 -0.057483904 0.057893522 -0.08235176
-0.1449893 -0.035953175 0.0016153923 -0.08558758 -0.06320453 -0.17329422 -0.032866206 0.07380247
0.004605741 -0.0047481586 -0.0401168 -0.105530106 -0.0061987597 -0.037151653 0.03981052 0.1466367
0.017597934 -0.034374014 0.06439111 -0.00046495174 -0.02193464 0.041713 0.06436343 -0.026829772
-0.09310095 -0.046103895 -0.036431953 -0.029902054 -0.089290164 -0.035163518 -0.09131892 -0.07358588
-0.006972096 -0.05416345 -0.007130904 0.05889291 -0.00029362593 0.035128903 -0.038247686 -0.018902041
0.046798788 0.040141683 -0.02582904 -0.04308544 0.022780027 0.04834612 -0.024278264 0.039059993
-0.08244974 -0.046678927 0.032249153 -0.08467452 -0.039269786 0.04699497 -0.020779137 -0.014721052
-0.03732842 0.003298532 0.054246854 -0.046289273 -0.03210793 -0.116815805 -0.103371345 -0.06746557
0.0043568853 -0.086822554 -0.043270152 -0.061834484 -0.10886395 0.10608806 0.066624396 -0.0505306
-0.037830032 0.0073676696 -0.00037702205 0.093343005 0.03842141 -0.026872665 -0.09586688 0.0800199
00000000: dae9 b3bc 360f 7fbc 352e efbd 8825 c7bc
00000010: 8404 433e 75ff 673c 21ce 93bd 806c 91bd
00000020: a9f7 3dbd 474a 303e 63aa 9a3d 0fdf eb3d
00000030: d761 5d3c 3ec3 92bd 857d 83bd 0eba 673d
00000040: ea56 833d 1ea2 15bd 8f9b 923c 3bd5 b3bc
00000050: 1ee1 0ebd bdef 893a 4e39 e23a 3252 f239
00000060: 2223 ffbd cb7f abbd dc6b 37be cc0e 14be
00000070: b6a0 f4ba e22a 123e e72a 4a3b e81d b1bd
00000080: 59fa f3bd 7366 90bd 3083 3fbb f0ea 3a3d
00000090: 72ed 063e 846a 2c3d 49b5 30be eb7b ccbd
000000a0: 253a 443d a9c1 bc3d f57b dd3c 5157 1cbd
000000b0: 009e 00bd e7f2 82bc 3259 3cbd 665b 4cbd
000000c0: 6ee9 72bd 4adc 7cbd 445f b53c 23e9 553c
000000d0: 18fa ae3c 3bfb 52bd cf7b 8bbe 87f0 21be
000000e0: 5509 04be 62b0 2f3d aec2 2f3e 2852 35be
000000f0: ba38 ccbd 2ad1 80bd b385 4cbd 8da1 663e
00000100: a729 f9bd 786a a6bc 9d8d d2bd 6bc6 93bb
00000110: be3e 253e 0fe6 a6bb cc4f 0c3d 11f3 84bd
00000120: aea3 ee3c c895 d73d 87d9 a3bc 842b 18be
00000130: a879 8bbd 195e 09bd 461c 3a3d 3876 103e
00000140: ee5e 00be e607 8bbb d4c8 05be 824b 393d
00000150: cf6a 473e 1886 01be f864 e9bd ec35 0bbe
00000160: 2c43 a1bd 3a99 903e 9e28 6bbd 46d9 d7bd
00000170: 6d0b 3fbd 7f04 973b 2333 bf3c ffbd 61bd
00000180: 08a0 1fbd c2ad 89bd 9874 49bd 7ccc 803d
00000190: 546b 9abc 88f7 cdbc 5688 edbc 9107 9e3d
000001a0: 9ccd c73d 4b1e 97bd a464 ea3b f9c3 a0bd
000001b0: 5e8d b03c e8c5 293d cd6a debd aff6 75bd
000001c0: 8afe 453c b176 80bd e369 5a3d 10e8 083d
000001d0: b74c 94bd 14ef 15bd 1310 6c3d b431 b7bd
000001e0: c570 ee3c d1c5 e4bb 73e9 33bc ea34 c33c
000001f0: 471b 353b 73cf 753c 6d14 1d3d ab29 f03b
00000200: 2959 35bd 1529 113d 2f65 2b3d 2569 cebc
00000210: c99d 283b e788 b5bc 02f1 8e3d 33f9 bcbd
00000220: 90f7 4b3d 3dad 0a3b be7d a6bd c0e4 2dbd
00000230: caf8 5bbb 91f2 01bd 88cc 233c 47b4 a23c
00000240: 01e2 4dbc d4ee 933b e576 a7bd 0271 a2bd
00000250: 6cf4 80bd d094 bdbd a17f 3c3c c0ea babd
00000260: 5195 bfbd 251f 7abd d03c 363d 5a01 69bd
00000270: 313d f4bc ea60 f7bd ff56 943b b2c1 5f3c
00000280: 74a3 a63d 6f19 a63c c323 273c e56f 893c
00000290: be58 d5bd f7f2 3b3d f860 f13d 6caf ec3c
000002a0: 074d 7abd 46d9 ddbc 7fd9 6d3d f8a2 193d
000002b0: 280d 47bd 3e74 6bbd c221 6d3d 0aa8 a8bd
000002c0: 1378 14be a343 13bd 92bb d33a 8b48 afbd
000002d0: 6071 81bd 0a74 31be b79e 06bd c025 973d
000002e0: c1eb 963b 7196 9bbb 8451 24bd 2b20 d8bd
000002f0: f71e cbbb 552c 18bd 5b10 233d ee27 163e
00000300: 8b29 903c c4cb 0cbd 7cdf 833d c4c4 f3b9
00000310: 46b0 b3bc 40db 2a3d f9d0 833d 1cca dbbc
00000320: b6ab bebd 70d7 3cbd ac39 15bd 27f5 f4bc
00000330: c3dd b6bd 9f07 10bd 6a05 bbbd 32b4 96bd
00000340: 2e76 e4bb 7eda 5dbd 5caa e9bb b139 713d
00000350: cef1 99b9 53e3 0f3d 9ba9 1cbd 74d8 9abc
00000360: 16b0 3f3d 9b6b 243d 6c97 d3bc 5c7a 30bd
00000370: 2e9d ba3c 9506 463d 36e3 c6bc 5ffd 1f3d
00000380: 69db a8bd 6732 3fbd b017 043d d669 adbd
00000390: 5bd9 20bd cc7d 403d 0239 aabc 9130 71bc
000003a0: afe5 18bd 2f2c 583b f331 5e3d d299 3dbd
000003b0: 9b83 03bd 203d efbd 5bb4 d3bd 642b 8abd
000003c0: 34c4 8e3b 06d0 b1bd 0b3c 31bd 2846 7dbd
000003d0: 10f4 debd b244 d93d 5f72 883d 2df9 4ebd
000003e0: aaf3 1abd 7e6c f13b 0bab c5b9 9e2a bf3d
000003f0: c55f 1d3d 1024 dcbc db55 c4bd 79e1 a33d

bias f4 [20]
0.0058234697 -0.029324232 -0.0007824557 -0.015016478 0.045629736 0.0102554625 0.017159669 -0.0075611323
0.0061471397 0.058557488 -0.02639094 -0.06625404 -0.025538893 -0.06363188 -0.018123677 -0.034710716
0.042805534 -0.03465339 0.05418316 -0.062985286
00000000: ced2 be3b 5f39 f0bc b71d 4dba ac07 76bc
00000010: 3fe6 3a3d 8706 283c 6f92 8c3c 60c3 f7bb
00000020: f26d c93b fad9 6f3d d031 d8bc 33b0 87bd
00000030: f136 d1bc 6e51 82bd 1b78 94bc d32c 0ebd
00000040: db54 2f3d b7f0 0dbd 29ef 5d3d 6efe 80bd

weight f4 [10, 320]
-0.07799986 -0.040677153 0.009367865 0.040212702 0.012926235 -0.10258369 -0.020487113 0.18040743
0.05414553 -0.16806944 -0.14638363 0.22110991 0.111142196 -0.13507189 -0.16724621 0.0383823
-0.043142587 -0.08209327 0.15475231 0.2530832 -0.06194595 -0.069895655 0.06802729 -0.04314516
-0.096795216 -0.057281874 -0.09085426 -0.23007485 0.050577544 0.2034697 0.09319008 -0.12224392
0.019691678 0.10378263 -0.097011924 -0.07961392 -0.081746474 -0.19490181 0.0009628777 0.13414456
0.062082265 0.097882725 0.2749281 0.098365515 0.048812058 0.011080226 -0.052530486 -0.0701331
0.022098143 -0.008932683 0.03130835 -0.028387425 0.01263835 0.0951538 -0.0017917207 0.02368052
0.0032326055 -0.03881581 -0.091453806 0.045153257 -0.049737684 -0.07919233 0.025611738 -0.0053712577
-0.029814038 -0.005534662 -0.035908815 0.01504087 0.034499668 -0.000115734074 0.03979724 -0.05429026
0.040446762 -0.03651277 -0.011817736 -0.034259714 0.018708264 -0.023959052 0.006422215 0.0002795653
-0.012461249 -0.105329156 -0.054343276 0.0033266845 0.15461427 0.11121808 -0.14693987 0.017876694
0.22538002 0.001242367 -0.06513098 -0.013746016 -0.004893779 -0.14553934 -0.21084924 -0.09749758
-0.006153706 0.06457877 -0.08328782 -0.04268828 0.09205687 -0.05561654 -0.098333605 0.0254325
0.019963168 -0.12342833 -0.14401273 -0.08669085 0.024648454 -0.14051096 -0.13414308 -0.04550091
-0.013197537 -0.047950823 -0.017188707 0.08050045 -0.059120562 0.051063143 0.07952898 0.17155756
-0.057867225 0.1289151 0.030901382 -0.028144117 -0.018731842 0.056167457 -0.1316446 -0.19501896
0.007522904 -0.038423285 -0.120463625 -0.018414773 -0.1533638 0.09649275 -0.020858115 -0.07411739
-0.034319673 0.0159382 -0.06293855 -0.064611875 0.028967595 -0.013070371 0.075981334 0.07433398
-0.054592 0.041263465 -0.016459279 -0.12081366 0.0006535445 0.09886394 -0.0709015 -0.156492
0.047307726 0.023068238 -0.019747863 0.12711613 0.011441766 -0.05479423 0.07720731 -0.011800972
-0.0807915 -0.107591115 0.11754217 0.17432882 -0.0585822 0.05470211 0.10810731 0.15544452
-0.032473657 -0.05646332 -0.15895611 -0.07202541 0.053037424 -0.0207171 -0.01963002 -0.06705096
0.103378214 0.024578013 -0.13726361 -0.14215416 0.13228972 -0.2034708 0.07737188 0.037001822
0.028639715 0.18527107 0.14478485 -0.067395814 0.05444494 0.20988269 0.09443566 -0.077750616
-0.019495243 -0.09919356 -0.09161735 -0.25808752 0.057939976 0.12901643 -0.08698697 -0.08092254
0.09238185 0.09704475 0.10016951 0.017686237 -0.03945766 -0.0926906 -1.48603785e-05 0.081214465
-0.028838048 0.009506747 0.0336259 -0.04853465 0.050347857 0.029176695 0.028046137 -0.030897943
0.030198937 -0.033006426 -0.012816867 0.051513698 0.05223583 -0.044311114 0.0039625014 -0.040499784
0.0070315693 -0.048910525 0.03085204 -0.089841716 -0.02989129 0.01729573 -0.018640393 -0.13445802
-0.02724952 0.10930106 0.005143874 -0.13053651 0.08416084 0.09368959 0.0059981868 -0.05044788
-0.057190325 0.017798254 0.010085396 -0.19659327 0.004027429 -0.056304935 -0.09201465 -0.12719949
-0.022569612 -0.080117956 -0.1766157 0.05433725 -0.024851602 -0.09646453 0.08748051 0.27787372
00000000: 64be 9fbd 169d 26bd ac7b 193c 13b6 243d
00000010: 8fc8 533c 6617 d2bd 97d4 a7bc babc 383e
00000020: b4c7 5d3d 651a 2cbe 97e5 15be a36a 623e
00000030: 859e e33d 4950 0abe 9742 2bbe c236 1d3d
00000040: 48b6 30bd 8420 a8bd 6477 1e3e 1f94 813e
00000050: 09bb 7dbd 7425 8fbd e451 8b3d fbb8 30bd
00000060: 923c c6bd 66a0 6abd cc11 babd be98 6bbe
00000070: 662a 4f3d 5c5a 503e 71da be3d 055b fabd
00000080: 7150 a13c fd8b d43d 30ae c6bd 9f0c a3bd
00000090: b26a a7bd 5794 47be a169 7c3a 315d 093e
000000a0: f949 7e3d bd76 c83d 60c3 8c3e dc73 c93d
000000b0: 27ef 473d d689 353c 352a 57bd f1a1 8fbd
000000c0: 2a07 b53c 635a 12bc 2f3d 003d bf8c e8bc
000000d0: 1511 4f3c ffdf c23d 2cd8 eaba a6fd c13c
000000e0: 1fda 533b 54fd 1ebd 224c bbbd 9ff2 383d
000000f0: beb9 4bbd 972f a2bd b5cf d13c 6001 b0bb
00000100: 923c f4bc 1c5c b5bb 1f15 13bd fb6d 763c
00000110: 864f 0d3d 42b6 f2b8 6e02 233d 775f 5ebd
00000120: 81ab 253d 6a8e 15bd 2d9f 41bc ea53 0cbd
00000130: 1342 993c c645 c4bc 7271 d23b 9f92 9239
00000140: 442a 4cbc d0b6 d7bd 0e97 5ebd 8104 5a3b
00000150: 3453 1e3e 4ec6 e33d 6877 16be 2572 923c
00000160: 05ca 663e ebd6 a23a 6463 85bd f836 61bc
00000170: fe5b a0bb 4408 15be dde8 57be d0ac c7bd
00000180: 07a5 c9bb e041 843d ce92 aabd e8d9 2ebd
00000190: 5088 bc3d 2bce 63bd 2163 c9bd d157 d03c
000001a0: cc89 a33c fec7 fcbd 1378 13be f98a b1bd
000001b0: 8eeb c93c 1be2 0fbe ce5c 09be 2a5f 3abd
000001c0: 7b3a 58bc 1568 44bd 55cf 8cbc 6cdd a43d
000001d0: 6728 72bd 9627 513d 17e0 a23d c9ac 2f3e
000001e0: 2f06 6dbd 5202 043e e524 fd3c 7e8e e6bc
000001f0: 8573 99bc d90f 663d d8cd 06be 0db3 47be
00000200: b182 f63b bc61 1dbd a2b5 f6bd 94da 96bc
00000210: 660b 1dbe fe9d c53d a3de aabc dcca 97bd
00000220: c992 0cbd d490 823c ede5 80bd 3b53 84bd
00000230: 734d ed3c 1c25 56bc 1a9c 9b3d 6a3c 983d
00000240: dc9b 5fbd e103 293d 9cd5 86bc 276d f7bd
00000250: a152 2b3a 2d79 ca3d ce34 91bd 703f 20be
00000260: bfc5 413d 9af9 bc3c 45c6 a1bc bb2a 023e
00000270: 3f76 3b3c ea6f 60bd de1e 9e3d dd58 41bc
00000280: 0476 a5bd bb58 dcbd f3b9 f03d 4183 323e
00000290: e4f3 6fbd 520f 603d 5e67 dd3d d92c 1f3e
000002a0: 1903 05bd 1546 67bd 64c5 22be 0f82 93bd
000002b0: c53d 593d e8b6 a9bc 23cf a0bc 0452 89bd
000002c0: f5b7 d33d d457 c93c d58e 0cbe dc90 11be
000002d0: f576 073e a65a 50be 2675 9e3d 398f 173d
000002e0: d69d ea3c b3b7 3d3e 7b42 143e d106 8abd
000002f0: a801 5f3d 7deb 563e 7c67 c13d b73b 9fbd
00000300: 7db4 9fbc fe25 cbbd e1a1 bbbd 0c24 84be
00000310: 7852 6d3d e21c 043e 3926 b2bd b7ba a5bd
00000320: b232 bd3d 66bf c63d ac25 cd3d bae2 903c
00000330: 5b9e 21bd 92d4 bdbd d750 79b7 c553 a63d
00000340: c53d ecbc 30c2 1b3c 50bb 093d 45cc 46bd
00000350: 8e39 4e3d f703 ef3c 03c1 e53c af1d fdbc
00000360: c363 f73c bf31 07bd d6fd 51bc 0700 533d
00000370: 3df5 553d 927f 35bd dfd7 813b 1ae3 25bd
00000380: 1469 e63b 6756 48bd 6bbd fc3c effe b7bd
00000390: 94de f4bc c6af 8d3c bdb3 98bc 5daf 09be
000003a0: 633a dfbc 3cd9 df3d f18d a83b 5dab 05be
000003b0: 855c ac3d 54e0 bf3d 708c c43b 70a2 4ebd
000003c0: 6740 6abd a5cd 913c 373d 253c bf4f 49be
000003d0: 86f8 833b 01a0 66bd 2d72 bcbd 9540 02be
000003e0: e8e3 b8bc e214 a4bd bfda 34be bc90 5e3d
000003f0: 9695 cbbc 328f c5bd fb28 b33d 7745 8e3e

bias f4 [10]
-0.054241918 0.03263901 8.019407e-05 -0.057058655 0.031912774 -0.026262548 -0.086590335 -0.0075191716
0.11391506 -0.062858686
00000000: c62c 5ebd 7cb0 053d dd2d a838 56b6 69bd
00000010: f8b6 023d 8e24 d7bc 4656 b1bd 6263 f6bb
00000020: 4d4c e93d 0ebc 80bd
